…
::: {.scrollable style="height: 300px; overflow-y: auto;"}
::: shrink-code
``` {.r code-line-numbers="1|1-3|4|5-6|7|9-26"}
model <- keras_model_sequential(input_shape = c(784)) 
model %>% 
     layer_dense(units = 256, activation = 'relu') %>% 
     layer_dropout(rate = 0.4) %>% 
     layer_dense(units = 128, activation = 'relu') %>%
     layer_dropout(rate = 0.3) %>%
     layer_dense(units = 10, activation = 'softmax')
     
summary(model)
># Model: "sequential"
># │ Layer (type)          │ Output Shape     │ Param # │
># ├-----------------------┼------------------┼---------┤
># │ dense_11 (Dense)      │ (None, 256)      │ 200,960 │
># │ dropout_3 (Dropout)   │ (None, 256)      │       0 │
># │ dense_10 (Dense)      │ (None, 128)      │  32,896 │
># │ dropout_2 (Dropout)   │ (None, 128)      │       0 │
># │ dense_9 (Dense)       │ (None, 10)       │   1,290 │
># └-----------------------┴------------------┴---------┘
>#  Total params: 235,146 (918.54 KB)
>#  Trainable params: 235,146 (918.54 KB)
>#  Non-trainable params: 0 (0.00 B)
```
:::
:::

![](images/DLiR/step2.png){.absolute bottom=25 left=0 width=550}

. . .

![](images/DLiR/dropout.gif){.absolute bottom=25 right=0 width=500}

## Multi-Class vs Multi-Label Classification

![](images/DLiR/mcml-1.png){.absolute bottom=115 left=0 width=1000}
…
